model_weight/sensor_classifier.pth (torch, 13837 bytes, 6 tensors)

layer1.weight f4 [64, 3]
0	0x3ed4e8c2	0.4158383
1	0x3ede9673	0.4347416
2	0xbe28ecde	-0.16496608
3	0x3f099c7a	0.5375439
4	0xbc58bbb5	-0.013228347
5	0x3e59d64c	0.21273154
6	0xbec91c98	-0.39279628
7	0x3e9b3fa3	0.30321988
8	0x3f04d154	0.5188191
9	0xbef41ad3	-0.47676715
10	0x3f076b9b	0.5289857
11	0x3ddd11c1	0.10794402
12	0x3f060806	0.5235599
13	0x3d964601	0.07337571
14	0x3e58e178	0.2117976
15	0xbe5ea043	-0.21740822
16	0x3efb810d	0.49121895
17	0xbd2989f0	-0.041391313
18	0xbe089be3	-0.13340716
19	0x3d2d12f2	0.042254396
20	0xbed7658a	-0.42069656
21	0x3df91a9a	0.12163277
22	0xbea818f0	-0.32831526
23	0x3ed31160	0.41224194
24	0xbf1e1b91	-0.61760813
25	0xbe9e1df9	-0.30882242
26	0xbd033ec6	-0.032042287
27	0xbe820643	-0.25395402
28	0x3cae5a9a	0.021283437
29	0xbf372296	-0.7153715
30	0x3f0e8aa5	0.55680305
31	0xbe915211	-0.28382924
32	0x3eacb9ba	0.33735448
33	0x3e44c82a	0.19216982
34	0xbe84e865	-0.25958553
35	0x3ebf5cc8	0.37375474
36	0x3d9857dd	0.074386336
37	0x3edceac4	0.43147862
38	0xbd5fe75f	-0.054664012
39	0xbeac7482	-0.33682638
40	0x3e48260a	0.19545761
41	0xbee30c96	-0.4434554
42	0x3eb7ae98	0.35875392
43	0x3ef0faf2	0.47066456
44	0x3eb22aef	0.3479838
45	0xbeca0636	-0.39457864
46	0x3ee1fbcb	0.44137415
47	0x3d5af51e	0.05345642
48	0x3e883df5	0.2660977
49	0xbe86c16f	-0.26319453
50	0xbf481e5e	-0.78171337
51	0xbe8fbb62	-0.2807265
52	0xbf10b372	-0.5652381
53	0x3eaef9bf	0.34174916
54	0x3eadee49	0.3397086
55	0x3e6bc7d3	0.23025446
56	0x3e22ebae	0.15910217
57	0xbcd16615	-0.025561372
58	0x3eaf6166	0.34253997
59	0xbf2987d2	-0.6622287
60	0x3c49fc80	0.012328267
61	0xbf12186d	-0.5706852
62	0x3e1bf4fa	0.1523017
63	0xbe8a6603	-0.27030954
64	0x3e997735	0.2997376
65	0xbd8945a8	-0.06702739
66	0x3f0c6478	0.54840803
67	0xbe84ffc7	-0.25976393
68	0xbee7153a	-0.45133382
69	0xbeabbdb4	-0.3354317
70	0x3f150697	0.5821318
71	0x3dfa8518	0.12232417
72	0x3eca9393	0.39565715
73	0xbee1a821	-0.44073585
74	0xbf4571e3	-0.771269
75	0xbf262f73	-0.6491615
76	0xbeb4ca5d	-0.3531064
77	0x3e2fdde5	0.1717449
78	0x3d93fe57	0.07226246
79	0x3eadb260	0.33925152
80	0xbef84720	-0.48491764
81	0xbea6ded8	-0.3259189
82	0x3eafc794	0.34331954
83	0xbee9649a	-0.45584565
84	0x3f00a0b2	0.502452
85	0xbdc172b6	-0.094457075
86	0x3db2ebcb	0.0873638
87	0xbeed8b5f	-0.46395394
88	0xbe387b7f	-0.1801586
89	0x3e47da1b	0.19516794
90	0x3e5dbd5c	0.21654266
91	0xbe502e3f	-0.20330141
92	0x3e40c6e4	0.18825871
93	0x3eb261f8	0.3484037
94	0xbe9bd734	-0.30437624
95	0xbee4aab7	-0.44661495
96	0x3f29f0e2	0.66383183
97	0xbdec479e	-0.115370974
98	0xbd1a8a8d	-0.03772979
99	0xbf16b4e0	-0.58869743
100	0xbe39542c	-0.18098515
101	0x3e5e758f	0.21724533
102	0xbd7548f5	-0.05988403
103	0xbefa6462	-0.4890471
104	0x3d8a697a	0.06758399
105	0xbec55e4a	-0.385485
106	0xbee720f4	-0.4514233
107	0xbeef3c9c	-0.4672593
108	0xbf18e631	-0.59726244
109	0xbed89a2c	-0.42305124
110	0x3eff8fa5	0.4991428
111	0x3e8fa48b	0.28055224
112	0x3e8c9aef	0.27461955
113	0xbf4122ab	-0.75443524
114	0xbf1ada15	-0.60489017
115	0xbe5e0e7b	-0.21685211
116	0x3e369b89	0.1783277
117	0xbeeee95f	-0.46662423
118	0xbe832ea6	-0.25621527
119	0xbf00d220	-0.50320625
120	0xbcbf5a6e	-0.02335855
121	0xbe10d1e2	-0.14142564
122	0xbd920648	-0.07130104
123	0xbeb56eec	-0.3543619
124	0xbec537b1	-0.38519052
125	0xbedb62b6	-0.42848748
126	0xbe63da33	-0.22251205
127	0xbebaf679	-0.3651617
128	0x3f108c87	0.5646443
129	0xbe865376	-0.2623555
130	0x3f05f4f1	0.52326876
131	0x3e238790	0.15969682
132	0xbf05cf20	-0.5226917
133	0x3ecb31dd	0.3968648
134	0xbe5bbcf6	-0.21458802
135	0xbe0b7e88	-0.13622487
136	0xbef2b0fc	-0.47400653
137	0xbf435d5d	-0.76314336
138	0x3e9aacce	0.30209965
139	0xbe62a719	-0.22134055
140	0x3e2b614d	0.16736336
141	0xbef3a254	-0.47584784
142	0x3f21f4ed	0.6326435
143	0xbee4e313	-0.44704494
144	0xbe528e3d	-0.20562072
145	0x3deec820	0.116592646
146	0x3ed87645	0.42277732
147	0x3ed0de6b	0.4079469
148	0x3ed9bc9d	0.42526713
149	0xbf353750	-0.70787525
150	0x3e8cca8a	0.27498275
151	0xbe534984	-0.20633513
152	0xbe2dc37f	-0.16969107
153	0xbf268a16	-0.6505445
154	0x3ede1d48	0.43381715
155	0xbef0f274	-0.47059977
156	0x3f01580f	0.5052499
157	0x3ddcc5a3	0.10779884
158	0xbd61e3bc	-0.055148825
159	0xbeac31b8	-0.33631682
160	0x3f200ae1	0.625166
161	0x3c962555	0.018328348
162	0x3daf8aa4	0.085713655
163	0xbf25fa6a	-0.64835227
164	0x3e1ab858	0.15109384
165	0xbd31a35a	-0.043368675
166	0xbe4e7bf2	-0.20164469
167	0x3f005ba8	0.50139856
168	0x3e4adf89	0.19811834
169	0xbe71313c	-0.23553938
170	0xbf040e34	-0.5158417
171	0xbd0bf936	-0.034173213
172	0x3e4ca1ff	0.19983672
173	0xbe357349	-0.17719759
174	0xbec8055b	-0.39066586
175	0xbe2462e6	-0.16053352
176	0xbefe15d4	-0.4962603
177	0x3eb90464	0.36136162
178	0x3eb31e8a	0.34984237
179	0xbf4d872b	-0.80284375
180	0x3e00a54e	0.12563059
181	0x3e8dfa32	0.27729946
182	0x3e1802ba	0.1484479
183	0xbe86b9e2	-0.26313692
184	0x3eb72265	0.35768428
185	0x3e6ed9d7	0.23325287
186	0x3ede048a	0.43362838
187	0x3daec131	0.08532942
188	0xbd8ed326	-0.06973867
189	0x3d7cfdc0	0.061765432
190	0xbdd0e0d0	-0.101991296
191	0xbe302e22	-0.17205098

layer1.bias f4 [64]
0	0x3ecdd3a1	0.40200523
1	0x3f0d3ecf	0.55173963
2	0x3d79c767	0.06098118
3	0xbda0c2a4	-0.07849625
4	0x3b9c8ff5	0.004777903
5	0xbe0f5c1e	-0.13999984
6	0x3e97b544	0.29630482
7	0x3da7574d	0.08170948
8	0xbed3ed45	-0.4139196
9	0xbdcb66aa	-0.09931691
10	0x3f1f0ac8	0.62125826
11	0x3e2fd4b0	0.17170978
12	0xbd1b0cda	-0.037854053
13	0xbe928990	-0.28620577
14	0xbeee80b8	-0.4658258
15	0xbef6bb58	-0.48189807
16	0xbe10f922	-0.14157537
17	0x3e0daa0e	0.13834402
18	0x3ec4d022	0.38440043
19	0x3ecb2f65	0.39684597
20	0xbeb4d58b	-0.3531917
21	0xbead4962	-0.3384505
22	0xbe0501ae	-0.12988922
23	0x3f0c0b15	0.5470441
24	0x3d866b0c	0.06563386
25	0xbe8286c3	-0.2549344
26	0x3eb71171	0.35755494
27	0xbe8df6c1	-0.2772732
28	0xbef0d721	-0.4703913
29	0x3f0a81fb	0.54104584
30	0xbee02be9	-0.437835
31	0xbe44553d	-0.19173141
32	0xbf0d90bf	-0.5529899
33	0x3f1de397	0.616754
34	0x3ee2bb12	0.44283348
35	0x3e9b7690	0.30363894
36	0xbf0f37a2	-0.55944264
37	0xbec2acb6	-0.38022393
38	0xbe8da606	-0.27665728
39	0x3ec95cfb	0.3932875
40	0x3ec17fcb	0.3779281
41	0x3f09dcb8	0.53852415
42	0x3e35631d	0.1771359
43	0x3db07016	0.08615129
44	0x3e0e6f2f	0.139096
45	0xbe964996	-0.29353017
46	0xbf0c1240	-0.5471535
47	0xbf0397ed	-0.51403695
48	0x3dd0ba6a	0.10191806
49	0xbe905c05	-0.28195205
50	0xbc085c42	-0.008322777
51	0xbe5bba7d	-0.21457858
52	0xbe055144	-0.13019282
53	0xbeb3e7d5	-0.3513781
54	0xbebafd95	-0.36521593
55	0x3e4fbb96	0.20286402
56	0xbd4848f5	-0.048897702
57	0x3f03a051	0.514165
58	0xbcd1e425	-0.025621483
59	0xbeb01d7a	-0.3439749
60	0x3ade0388	0.0016938308
61	0xbe936ed5	-0.28795496
62	0xbd8e5d66	-0.06951408
63	0xbf0cb4e0	-0.54963493

layer2.weight f4 [32, 64]
0	0x3df5b93b	0.119982205
1	0xbd4fd595	-0.050740797
2	0xbcc78c52	-0.024358902
3	0x3cd77490	0.026300699
4	0x3dccf48a	0.100075796
5	0xbdd334c1	-0.103127964
6	0x3dd0faaa	0.102040604
7	0xbcd162b7	-0.025559766
8	0x3cf36224	0.029709883
9	0x3d09c683	0.03363658
10	0xbb8a47f9	-0.0042200056
11	0x39a73a21	0.00031896032
12	0xbb71a3c7	-0.00368713
13	0xbe1c346f	-0.15254377
14	0x3de288cc	0.11061248
15	0xbe1c1fe0	-0.15246534
16	0x3a96e896	0.0011513408
17	0x3c459d75	0.012061466
18	0x3e2bb628	0.16768706
19	0x3d4a5078	0.049393147
20	0xbdc053bc	-0.09390971
21	0x3d3703d7	0.044681396
22	0xbc44e927	-0.0120184785
23	0xbdc4c347	-0.09607559
24	0xbd750e1f	-0.05982792
25	0xbdc04978	-0.09389013
26	0x3d299df0	0.041410387
27	0xbd58f8b8	-0.05297157
28	0x3b029378	0.0019924324
29	0xbe9145af	-0.28373477
30	0xbd454505	-0.048161525
31	0x3a6a4fb0	0.0008938266
32	0x3ce59886	0.02802683
33	0xbea4c10e	-0.3217854
34	0xbccd5622	-0.025065485
35	0xbe88a200	-0.26686096
36	0xbe49a5b5	-0.19692118
37	0xbe2c2886	-0.16812333
38	0x3d9d977d	0.0769491
39	0xbe865013	-0.26232967
40	0xbd8319c4	-0.06401399
41	0xbd9af461	-0.07566143
42	0xbd117c83	-0.035519134
43	0xbd4d6cb0	-0.05015248
44	0x3c129d1e	0.0089485925
45	0xbebcadfe	-0.36851496
46	0x3dd55bb8	0.104178846
47	0x3a955aea	0.0011394892
48	0xbe05dc24	-0.13072258
49	0x3e30563c	0.17220396
50	0xbd642cb3	-0.05570669
51	0x3d8981c7	0.06714206
52	0x3d64d213	0.055864405
53	0x3c7829af	0.015146657
54	0x3e12a786	0.14321718
55	0x3c6161f4	0.013756264
56	0xbe7a4374	-0.24439794
57	0x3da2f73e	0.07957314
58	0xbd702f55	-0.05863889
59	0x3c9e2497	0.019304557
60	0x3e1b7878	0.15182674
61	0x3db1c0cd	0.08679352
62	0x3cc5c4d7	0.024141712
63	0x3cd48928	0.025944307
64	0xbcae2bbe	-0.021261092
65	0x3ce90702	0.028445724
66	0x3d84b9ed	0.06480775
67	0x3c83afec	0.016075097
68	0xbdf1327b	-0.117772065
69	0xbe360be7	-0.17777978
70	0xbc1be904	-0.0095160045
71	0xbe41f624	-0.18941551
72	0xbdce6d3d	-0.10079429
73	0xba588bf6	-0.0008260602
74	0x3d22cf93	0.03974874
75	0xbdc65141	-0.09683467
76	0xbd6f793f	-0.05846524
77	0xbe838769	-0.25689247
78	0x3db14b29	0.08656914
79	0xbe8a1cc3	-0.26975068
80	0x3e180e49	0.148492
81	0x3dd32beb	0.10311111
82	0xbd3621be	-0.044465773
83	0x3d95b38f	0.07309639
84	0xbde0de50	-0.10979903
85	0xbe567364	-0.20942456
86	0x3dbd5938	0.09245533
87	0xbd6296e1	-0.05531967
88	0x3cfd1c4c	0.030897282
89	0xbd7e29db	-0.062051635
90	0x3e293598	0.1652435
91	0xbe17b1ee	-0.14813969
92	0xbe1b3fcd	-0.15161057
93	0x3dd2ec62	0.10298993
94	0xbe08bf3e	-0.13354203
95	0x3e212354	0.15736133
96	0x3de4b67d	0.111676194
97	0x3e183cec	0.1486699
98	0xbc8b7564	-0.01702375
99	0x3e06bec9	0.13158716
100	0x3d16f80f	0.03685766
101	0x3e4ba9cc	0.19888991
102	0xbdd28e37	-0.102810316
103	0x3e518ccd	0.20463867
104	0x3d95c890	0.07313645
105	0x3b6e5d81	0.003637165
106	0xbdd838a4	-0.10557678
107	0xbc891f7c	-0.016738646
108	0x3d871800	0.065963745
109	0x3d96676f	0.07343947
110	0xbe4a4ab0	-0.19755054
111	0xbe69c8fb	-0.22830574
112	0xbe1aa10a	-0.15100494
113	0x3df01313	0.11722388
114	0x3e463386	0.19355592
115	0x39e7213e	0.0004408452
116	0xbd822314	-0.06354347
117	0xbe2d1195	-0.16901238
118	0xbe2a6239	-0.16639031
119	0xbdebebd8	-0.11519593
120	0x3df50b61	0.11965061
121	0x3e03e5cd	0.12880631
122	0x3e058e1d	0.13042493
123	0x3b9fd483	0.0048776283
124	0x3d6b87d4	0.057502583
125	0xbe496656	-0.19667944
126	0x3d8a6f7d	0.06759546
127	0x3dd8a388	0.10578066
128	0x3d0a88cb	0.033821862
129	0x3e4421b5	0.19153483
130	0x3c2c89dd	0.010530916
131	0xbdb0625e	-0.08612512
132	0x3db799b6	0.08964865
133	0xbd67a3ad	-0.056552578
134	0x3d2b7d36	0.041867457
135	0xbbbecb16	-0.0058225496
136	0xbd84e8bf	-0.06489705
137	0x3dbbfb7d	0.09178827
138	0x3d861a1a	0.06547947
139	0xbc9c5998	-0.01908569
140	0xbdc30c55	-0.095238365
141	0xbd7aa4dd	-0.061192382
142	0xbd11e353	-0.035617184
143	0xbe14994b	-0.14511602
144	0x3de86188	0.113467276
145	0x3dc9a7a6	0.098464295
146	0x3df43818	0.119247615
147	0x3d5dff75	0.0541987
148	0xbe248b34	-0.16068727
149	0xbe7544a1	-0.23951961
150	0xbd081b0d	-0.033228923
151	0x3c7cad87	0.0154222315
152	0x3bdcb6db	0.0067356653
153	0xbd8804b7	-0.06641524
154	0xbc882d8b	-0.01662328
155	0xbd8df7f2	-0.069320574
156	0xbca66593	-0.020312106
157	0x3de2dcb2	0.110772505
158	0x3d2f8e7b	0.04286049
159	0x3bd20717	0.0064095366
160	0xbe1abd98	-0.15111387
161	0x3db1f948	0.08690125
162	0x3cb0dbbb	0.02158915
163	0xbdbe0a1e	-0.092792735
164	0xbd9e9728	-0.077436745
165	0x3d444419	0.047916505
166	0xbe8133a7	-0.2523472
167	0x3d9462e2	0.07245423
168	0x3e423beb	0.1896817
169	0x3cc526cd	0.024066353
170	0x3ca5d798	0.020244405
171	0xbd9706f4	-0.07374373
172	0xbd0988da	-0.033577777
173	0x3df13c3a	0.117790654
174	0xbdfc6ae9	-0.12325079
175	0xbddc85df	-0.107677214
176	0x3d93718f	0.07199394
177	0x3db0660d	0.08613215
178	0xbdf7c491	-0.12098039
179	0x3cf92a0a	0.030415554
180	0xbe5b5ab4	-0.21421319
181	0xbdab10eb	-0.08352836
182	0xbe1e3de6	-0.154533
183	0x3d888268	0.06665498
184	0x3da81ea0	0.08208966
185	0x3e117249	0.14203753
186	0x3c5040b6	0.012710741
187	0x3e30c75b	0.17263548
188	0x3df2b8f2	0.11851682
189	0xbd95ee92	-0.07320894
190	0xbe6c37f2	-0.23068216
191	0x3dcd63aa	0.10028775
192	0x3e0b295a	0.13589993
193	0xbd8a7f7e	-0.067625985
194	0xbd3ba486	-0.0458112
195	0xbe281218	-0.16413152
196	0xbe2ee335	-0.1707886
197	0xbdb347d8	-0.087539375
198	0x3dda4f0d	0.10659609
199	0xbe04e992	-0.12979725
200	0xbc946f7c	-0.018119566
201	0x3df90095	0.12158314
202	0xbd778a42	-0.060434587
203	0xbe812fc4	-0.25231755
204	0xbcdcaa24	-0.026936598
205	0xbe00ff69	-0.12597431
206	0xbb78074d	-0.0037846148
207	0xbe7a35c3	-0.24434571
208	0x3e3c60d8	0.18396318
209	0xbd1e2e73	-0.038618516
210	0xbe007b82	-0.12547114
211	0xbaab799e	-0.0013082509
212	0xbdb8ed20	-0.09029603
213	0xbd8139f3	-0.06309881
214	0x3e81c69f	0.25346848
215	0x3d3f415e	0.0466932
216	0x3e5903cb	0.21192853
217	0x3d2835a6	0.041066788
218	0xbce22453	-0.027605211
219	0xbd469af8	-0.048487633
220	0xbe26edec	-0.16301697
221	0x3cac8cb1	0.02106318
222	0xbe8d3dcd	-0.27586213
223	0x3dcb24e1	0.099191435
224	0x3ddbbe80	0.10729694
225	0x3cac879a	0.021060754
226	0x3c47b823	0.012189898
227	0x3e094fef	0.13409398
228	0xbd7fe5da	-0.062475063
229	0xbc60b78a	-0.013715634
230	0x3d769201	0.060197834
231	0x3d78770f	0.060660418
232	0x3e5f8c71	0.21830918
233	0x3e58a4c4	0.21156603
234	0x3c028c02	0.007967951
235	0xbcfb75c6	-0.030695807
236	0xbae72b5c	-0.0017636823
237	0x3cfee818	0.03111653
238	0xbe8bd510	-0.2731099
239	0xbe212160	-0.15735388
240	0x3ca41039	0.020027267
241	0x3e3252fa	0.17414466
242	0x3cd4db8f	0.0259836
243	0xbe0212ad	-0.12702437
244	0xbcd5b20d	-0.026085878
245	0xbe68a17d	-0.22717853
246	0xbe2ecb9f	-0.17069863
247	0x3b0b02d4	0.0021211402
248	0x3e6ccd8c	0.23125285
249	0x3dd7ee7b	0.105435334
250	0xbd934d18	-0.07192439
251	0xbc635ef5	-0.01387762
252	0xbdcd8407	-0.10034948
253	0xbdf6f894	-0.12059131
254	0x3c07fb59	0.008299672
255	0xbdeb002e	-0.11474644

layer2.bias f4 [32]
0	0x3c0b4d82	0.008502366
1	0x3cfa338e	0.030542161
2	0x3d5c3b16	0.053767286
3	0x3c3676da	0.011136735
4	0xbdd10990	-0.10206902
5	0x3e131a1d	0.1436543
6	0x3e4bef17	0.19915424
7	0x3e06aed4	0.13152629
8	0xbd66d69c	-0.05635701
9	0x3e38d20a	0.18048874
10	0xbdade946	-0.08491759
11	0xbd9f3d9a	-0.077754214
12	0x3db0a1ee	0.08624636
13	0x3d995fc4	0.07488969
14	0xbd0451e7	-0.03230467
15	0xbe53c656	-0.20681128
16	0xbd58b817	-0.052909937
17	0xbdd4c51d	-0.10389159
18	0x3e7ffac0	0.24997997
19	0x3ca64c17	0.020299954
20	0x3ca519e2	0.020153943
21	0x3c7ec0b5	0.015548875
22	0xbe0d14f7	-0.13777529
23	0xbc2e5209	-0.010639676
24	0xbd91504a	-0.07095392
25	0x3e113399	0.14179839
26	0xbd465ad2	-0.048426457
27	0x3d0ed014	0.034866408
28	0xbdcadc5e	-0.09905313
29	0xbd8761c0	-0.06610441
30	0x3ca4b1e2	0.020104352
31	0xbdaff7be	-0.08592175

layer3.weight f4 [2, 32]
0	0x3e041a00	0.12900543
1	0xbe3cd6b2	-0.18441275
2	0xbdeec528	-0.11658698
3	0xbe2f9dbc	-0.17150015
4	0x3ea66530	0.32499075
5	0xbd97b219	-0.07407016
6	0xbe4a741f	-0.19770859
7	0xbe260a4e	-0.16214868
8	0x3e05e393	0.13075094
9	0xbdd80d52	-0.10549416
10	0x3e428bbb	0.18998615
11	0x3dff9ea7	0.124814324
12	0xbe6576d0	-0.22408605
13	0xbe24eb3d	-0.16105361
14	0x3ccea6fc	0.025226109
15	0x3e06a959	0.13150539
16	0x3dd7e6e0	0.10542083
17	0x3e8d4cb0	0.2759757
18	0xbe3d8dc3	-0.18511109
19	0x3d22196f	0.039575037
20	0x3ea90c26	0.3301708
21	0x3e874e50	0.26426935
22	0x3e0a6c7d	0.13517947
23	0x3d0750c9	0.033036027
24	0x3e1c38fb	0.15256111
25	0xbe90a5d9	-0.28251532
26	0x3dc976ca	0.0983711
27	0x3dd53a95	0.10411564
28	0x3c26129d	0.010136274
29	0x3e14605e	0.14489886
30	0x3e53c37b	0.20680039
31	0x3e7fb836	0.24972615
32	0xbe30888d	-0.1723959
33	0x3ea29764	0.31756127
34	0x3e8651a2	0.26234156
35	0x3e333fc0	0.17504787
36	0xbea09893	-0.31366405
37	0x3d26c0f7	0.04071137
38	0x3d1e11ab	0.03859107
39	0x3dcfd483	0.10147955
40	0xbe5193d4	-0.20466548
41	0x3e460fc0	0.19341946
42	0xbe8527fa	-0.26007062
43	0xbe460c87	-0.19340716
44	0x3d8313d7	0.064002685
45	0x3d79cd9e	0.060987107
46	0xbe90b799	-0.28265074
47	0xbe48f85f	-0.19625996
48	0xbd21bf59	-0.039489124
49	0xbccaf06c	-0.024772845
50	0x3e9c9479	0.30582026
51	0xbe247fbc	-0.16064352
52	0xbe111726	-0.14168987
53	0xbe92f487	-0.28702185
54	0xbe7f1f15	-0.249142
55	0x3c5d2c25	0.013499294
56	0xbe7aaae4	-0.24479252
57	0xbcaf1143	-0.021370536
58	0xbe83761d	-0.2567605
59	0xbe85ac5c	-0.26108062
60	0x3e96dcc5	0.2946531
61	0x3de7f1e1	0.113254316
62	0xbe7781c3	-0.24170594
63	0xbe57157f	-0.21004294

layer3.bias f4 [2]
0	0xbea18f39	-0.31554583
1	0x3d99f3b6	0.07517187
